…
<figure class="highlight python"><table><tr><td class="code"><pre><span class="line"><span class="comment">#resnet.children()æµ‹è¯•</span></span><br><span class="line"><span class="keyword">import</span> torchvision</span><br><span class="line"><span class="keyword">from</span> torch <span class="keyword">import</span> nn</span><br><span class="line"></span><br><span class="line">resnet = torchvision.models.resnet18()</span><br><span class="line">backbone = nn.Sequential(*<span class="built_in">list</span>(resnet.children())[:-<span class="number">1</span>])</span><br><span class="line"><span class="built_in">print</span>(backbone)</span><br><span class="line"></span><br><span class="line"><span class="string">&#x27;&#x27;&#x27;</span></span><br><span class="line"><span class="string">Sequential(</span></span><br><span class="line"><span class="string">  (0): Conv2d(3, 64, kernel_size=(7, 7), stride=(2, 2), padding=(3, 3), bias=False)</span></span><br><span class="line"><span class="string">  (1): BatchNorm2d(64, eps=1e-05, momentum=0.1, affine=True, track_running_stats=True)</span></span><br><span class="line"><span class="string">  (2): ReLU(inplace=True)</span></span><br><span class="line"><span class="string">  (3): MaxPool2d(kernel_size=3, stride=2, padding=1, dilation=1, ceil_mode=False)</span></span><br><span class="line"><span class="string">  (4): Sequential(</span></span><br><span class="line"><span class="string">    (0): BasicBlock(</span></span><br><span class="line"><span class="string">      (conv1): Conv2d(64, 64, kernel_size=(3, 3), stride=(1, 1), padding=(1, 1), bias=False)</span></span><br><span class="line"><span class="string">      (bn1): BatchNorm2d(64, eps=1e-05, momentum=0.1, affine=True, track_running_stats=True)</span></span><br><span class="line"><span class="string">      (relu): ReLU(inplace=True)</span></span><br><span class="line"><span class="string">      (conv2): Conv2d(64, 64, kernel_size=(3, 3), stride=(1, 1), padding=(1, 1), bias=False)</span></span><br><span class="line"><span class="string">      (bn2): BatchNorm2d(64, eps=1e-05, momentum=0.1, affine=True, track_running_stats=True)</span></span><br><span class="line"><span class="string">    )</span></span><br><span class="line"><span class="string">    (1): BasicBlock(</span></span><br><span class="line"><span class="string">      (conv1): Conv2d(64, 64, kernel_size=(3, 3), stride=(1, 1), padding=(1, 1), bias=False)</span></span><br><span class="line"><span class="string">      (bn1): BatchNorm2d(64, eps=1e-05, momentum=0.1, affine=True, track_running_stats=True)</span></span><br><span class="line"><span class="string">      (relu): ReLU(inplace=True)</span></span><br><span class="line"><span class="string">      (conv2): Conv2d(64, 64, kernel_size=(3, 3), stride=(1, 1), padding=(1, 1), bias=False)</span></span><br><span class="line"><span class="string">      (bn2): BatchNorm2d(64, eps=1e-05, momentum=0.1, affine=True, track_running_stats=True)</span></span><br><span class="line"><span class="string">    )</span></span><br><span class="line"><span class="string">  )</span></span><br><span class="line"><span class="string">  (5): Sequential(</span></span><br><span class="line"><span class="string">    (0): BasicBlock(</span></span><br><span class="line"><span class="string">      (conv1): Conv2d(64, 128, kernel_size=(3, 3), stride=(2, 2), padding=(1, 1), bias=False)</span></span><br><span class="line"><span class="string">      (bn1): BatchNorm2d(128, eps=1e-05, momentum=0.1, affine=True, track_running_stats=True)</span></span><br><span class="line"><span class="string">      (relu): ReLU(inplace=True)</span></span><br><span class="line"><span class="string">      (conv2): Conv2d(128, 128, kernel_size=(3, 3), stride=(1, 1), padding=(1, 1), bias=False)</span></span><br><span class="line"><span class="string">      (bn2): BatchNorm2d(128, eps=1e-05, momentum=0.1, affine=True, track_running_stats=True)</span></span><br><span class="line"><span class="string">      (downsample): Sequential(</span></span><br><span class="line"><span class="string">        (0): Conv2d(64, 128, kernel_size=(1, 1), stride=(2, 2), bias=False)</span></span><br><span class="line"><span class="string">        (1): BatchNorm2d(128, eps=1e-05, momentum=0.1, affine=True, track_running_stats=True)</span></span><br><span class="line"><span class="string">      )</span></span><br><span class="line"><span class="string">    )</span></span><br><span class="line"><span class="string">    (1): BasicBlock(</span></span><br><span class="line"><span class="string">      (conv1): Conv2d(128, 128, kernel_size=(3, 3), stride=(1, 1), padding=(1, 1), bias=False)</span></span><br><span class="line"><span class="string">      (bn1): BatchNorm2d(128, eps=1e-05, momentum=0.1, affine=True, track_running_stats=True)</span></span><br><span class="line"><span class="string">      (relu): ReLU(inplace=True)</span></span><br><span class="line"><span class="string">      (conv2): Conv2d(128, 128, kernel_size=(3, 3), stride=(1, 1), padding=(1, 1), bias=False)</span></span><br><span class="line"><span class="string">      (bn2): BatchNorm2d(128, eps=1e-05, momentum=0.1, affine=True, track_running_stats=True)</span></span><br><span class="line"><span class="string">    )</span></span><br><span class="line"><span class="string">  )</span></span><br><span class="line"><span class="string">  (6): Sequential(</span></span><br><span class="line"><span class="string">    (0): BasicBlock(</span></span><br><span class="line"><span class="string">      (conv1): Conv2d(128, 256, kernel_size=(3, 3), stride=(2, 2), padding=(1, 1), bias=False)</span></span><br><span class="line"><span class="string">      (bn1): BatchNorm2d(256, eps=1e-05, momentum=0.1, affine=True, track_running_stats=True)</span></span><br><span class="line"><span class="string">      (relu): ReLU(inplace=True)</span></span><br><span class="line"><span class="string">      (conv2): Conv2d(256, 256, kernel_size=(3, 3), stride=(1, 1), padding=(1, 1), bias=False)</span></span><br><span class="line"><span class="string">      (bn2): BatchNorm2d(256, eps=1e-05, momentum=0.1, affine=True, track_running_stats=True)</span></span><br><span class="line"><span class="string">      (downsample): Sequential(</span></span><br><span class="line"><span class="string">        (0): Conv2d(128, 256, kernel_size=(1, 1), stride=(2, 2), bias=False)</span></span><br><span class="line"><span class="string">        (1): BatchNorm2d(256, eps=1e-05, momentum=0.1, affine=True, track_running_stats=True)</span></span><br><span class="line"><span class="string">      )</span></span><br><span class="line"><span class="string">    )</span></span><br><span class="line"><span class="string">    (1): BasicBlock(</span></span><br><span class="line"><span class="string">      (conv1): Conv2d(256, 256, kernel_size=(3, 3), stride=(1, 1), padding=(1, 1), bias=False)</span></span><br><span class="line"><span class="string">      (bn1): BatchNorm2d(256, eps=1e-05, momentum=0.1, affine=True, track_running_stats=True)</span></span><br><span class="line"><span class="string">      (relu): ReLU(inplace=True)</span></span><br><span class="line"><span class="string">      (conv2): Conv2d(256, 256, kernel_size=(3, 3), stride=(1, 1), padding=(1, 1), bias=False)</span></span><br><span class="line"><span class="string">      (bn2): BatchNorm2d(256, eps=1e-05, momentum=0.1, affine=True, track_running_stats=True)</span></span><br><span class="line"><span class="string">    )</span></span><br><span class="line"><span class="string">  )</span></span><br><span class="line"><span class="string">  (7): Sequential(</span></span><br><span class="line"><span class="string">    (0): BasicBlock(</span></span><br><span class="line"><span class="string">      (conv1): Conv2d(256, 512, kernel_size=(3, 3), stride=(2, 2), padding=(1, 1), bias=False)</span></span><br><span class="line"><span class="string">      (bn1): BatchNorm2d(512, eps=1e-05, momentum=0.1, affine=True, track_running_stats=True)</span></span><br><span class="line"><span class="string">      (relu): ReLU(inplace=True)</span></span><br><span class="line"><span class="string">      (conv2): Conv2d(512, 512, kernel_size=(3, 3), stride=(1, 1), padding=(1, 1), bias=False)</span></span><br><span class="line"><span class="string">      (bn2): BatchNorm2d(512, eps=1e-05, momentum=0.1, affine=True, track_running_stats=True)</span></span><br><span class="line"><span class="string">      (downsample): Sequential(</span></span><br><span class="line"><span class="string">        (0): Conv2d(256, 512, kernel_size=(1, 1), stride=(2, 2), bias=False)</span></span><br><span class="line"><span class="string">        (1): BatchNorm2d(512, eps=1e-05, momentum=0.1, affine=True, track_running_stats=True)</span></span><br><span class="line"><span class="string">      )</span></span><br><span class="line"><span class="string">    )</span></span><br><span class="line"><span class="string">    (1): BasicBlock(</span></span><br><span class="line"><span class="string">      (conv1): Conv2d(512, 512, kernel_size=(3, 3), stride=(1, 1), padding=(1, 1), bias=False)</span></span><br><span class="line"><span class="string">      (bn1): BatchNorm2d(512, eps=1e-05, momentum=0.1, affine=True, track_running_stats=True)</span></span><br><span class="line"><span class="string">      (relu): ReLU(inplace=True)</span></span><br><span class="line"><span class="string">      (conv2): Conv2d(512, 512, kernel_size=(3, 3), stride=(1, 1), padding=(1, 1), bias=False)</span></span><br><span class="line"><span class="string">      (bn2): BatchNorm2d(512, eps=1e-05, momentum=0.1, affine=True, track_running_stats=True)</span></span><br><span class="line"><span class="string">    )</span></span><br><span class="line"><span class="string">  )</span></span><br><span class="line"><span class="string">  (8): AdaptiveAvgPool2d(output_size=(1, 1))</span></span><br><span class="line"><span class="string">)</span></span><br><span class="line"><span class="string">&#x27;&#x27;&#x27;</span></span><br><span class="line"></span><br></pre></td></tr></table></figure>
…
